best_model.pth (torch_old, 824521 bytes, 4 tensors)

fc1.weight f4 [1024, 100]
00000000: bafc 93bd e727 d8bd dc39 2f3d 1f51 0d3d
00000010: 51aa a4bb 4ad3 133d 12c6 463d 1e6b c3bc
00000020: 8e27 f73c 11e7 7ebd 6873 7d3d 6745 2abd
00000030: b0df 9abc 23f2 023e e8be 04bd d7b1 53bc
00000040: 16a8 c53d f1b8 b13d 07bf fc3d 9aa3 143c
00000050: 6c4e 60bc d068 b83d ccae 92bc aafd 003d
00000060: fb70 5abc 13c5 0c3d 5693 78bd febc 6d3d
00000070: d5f9 bebd 942b fbbd a1e7 3d3c 8e2c b3bd
00000080: e6b3 b7bd 5e3c dcbc 7de3 093d 3c8b 8b3d
00000090: 18fd f83d 0747 a23d 26ad 5ebc 15da 6c3d
000000a0: 3cf2 923d eeff 063e 74d2 a33d dbd5 bcbc
000000b0: 65af a3bd 006e a6bd b129 30bc 4390 c3bd
000000c0: 71c0 c93c 0b49 ae3a 4b3c eb3b 5d15 3c3d
000000d0: d3cd e33d 9a41 073e 4785 76bb b1cc 8d3d
000000e0: 7a32 493d f97d 253d 9d51 c13d a499 983d
000000f0: 9249 aabd 223e f5bd b4b1 8bbd 9ae3 27be
00000100: 85f6 23bd 18af b9bd 7ab3 2a3d fbd9 85bd
00000110: 6307 b93d 674a dd3d 94f5 d43d e957 7aba
00000120: 185b ff3d fe4d 363d 42fa 9f3c a921 fbbd
00000130: cd81 acbd 1a77 7ebc cae7 2abd c270 713c
00000140: a07c 98bc aec8 6fbc 885e 3bbd 6873 99bd
00000150: e923 adbc b9c5 8bbd ce8e c23d d75c 94bc
00000160: 0aa9 8abc 3e99 643d 5e35 ef3c 6d32 083e
00000170: 971c 363d 066e ad3d ee6f b63d 2be7 103e
00000180: fa9b 72bb 3542 aa3b 678b d7bc a389 81be
00000190: 3985 123e bbec 49bc e18a 01be 51c8 9cbe
000001a0: ffed 45be a27d c7be e38e 8abe 76df 9dbe
000001b0: 2d3f 12be a3cd 10be 6c4b 07bd dc0e 9a3b
000001c0: addf 9c3d 77f9 d73c dc2b 2d3e 2fdf e03d
000001d0: de29 013e 1907 483e 4dac 963e 88bf 753e
000001e0: 9735 053e 3046 a63d 4cad f03d 56b8 083e
000001f0: 6785 653d 2dcf 08be 7faa 20be 7960 4cbe
00000200: 68db 28be b88b cebd 58d5 3abe 12af 02be
00000210: 5d5b 40be aa26 3e3d 844e 603c 9119 133e
00000220: 2fbc 023e 3e9b 4f3e 6dea 963e 04e5 a43e
00000230: 90a7 7e3e 786d f13d bc22 723d ce2f 6a3c
00000240: 98a9 6ebe 4996 12be 2393 32be 798e 83be
00000250: 5975 6ebe 6c17 95be 9f31 abbc 3a7c 563d
00000260: f7b4 f53d 275e 473e 5acf 423e 57e2 473e
00000270: d6c1 433e 5ad7 ee3d 1706 173e 0f10 da3d
00000280: f017 d3bd e5aa 62be cefb 4ebe e1b2 87be
00000290: 0526 4fbe 8c46 74be bd10 1dbe cd46 c03b
000002a0: 3d32 393e 00bb b23d d4e4 853e fa40 4a3e
000002b0: f1a3 943e 64f3 b93d 5753 fd3c b5f5 eebd
000002c0: 0e1c 9fbd 9edc 00be 8510 26be e608 2ebe
000002d0: a4ed 3ebe 235c 0cbe 8f62 11be 6138 2ebd
000002e0: 26bb c73d 9dc9 183d 1f95 0e3e 4326 003e
000002f0: 1d33 573e cde8 393e 59b6 153e ec78 7c3d
00000300: 6b8d 183e 23a8 a5bc 8195 20be 8990 36be
00000310: 106e cabe 1213 9ebe b15f 54be 9333 153e
00000320: 80ba 59bd 12da 283c 83ec 983d 94c4 763d
00000330: eda2 d33d cafc 933c d4f5 c73d 658d c03d
00000340: 9b38 f83d 5ba9 a2bd ef81 b13d 6b39 2abd
00000350: 79d1 443c 8ddc 853d 1820 483c 6aed 8d3d
00000360: 8acc 993b bf69 2f3c 6d66 84bc 0759 013d
00000370: ccf3 c4bd 97a8 8bbd 5b9c 093d 5da4 343c
00000380: 7bcc 8b3c c633 49bd 92b1 363e 1b85 973d
00000390: edde 573e 4cdf 143e ca99 803e 4eac 1c3e
000003a0: 5400 bc3d 4a98 a33d 5b15 c1bd e8b5 c4bd
000003b0: 6907 98be 7270 79be 3aba c0be bf7e cbbe
000003c0: 9f4a babe 7e8a 85be ca6d 1ebe 3b29 e0bc
000003d0: 01b7 4a3d d49a 433e 27ef b93e 46b0 673e
000003e0: 7ef1 a33e f1ae 683e c0ca 043e 98a9 043d
000003f0: 9090 c6bd f9f7 78be dbac 7bbe 3c86 a4be
-0.07225938 -0.10554486 0.04277979 0.03450119 -0.005025186 0.036090173 0.04852874 -0.023854788
0.030170228 -0.06223208 0.061877638 -0.041570093 -0.01890549 0.1278768 -0.032408625 -0.012920818
0.096512005 0.08677853 0.12341123 0.009072209 -0.013690572 0.090043664 -0.017905615 0.031491913
-0.013332601 0.034367632 -0.060687385 0.058041565 -0.093249954 -0.12264171 0.011590869 -0.087487325
-0.0896986 -0.026884254 0.033664215 0.06813666 0.12157649 0.07923704 -0.0135910865 0.057825167
0.07175109 0.13183567 0.07999125 -0.023051193 -0.07992438 -0.081264496 -0.0107521275 -0.09549
0.024627896 0.0013296915 0.0071788183 0.04591881 0.11123242 0.13208619 -0.003761606 0.069238074
0.049120404 0.04040334 0.094393946 0.074511796 -0.08314814 -0.119747415 -0.068210036 -0.16395417
-0.04003002 -0.090665996 0.04167507 -0.06535717 0.09034612 0.10805207 0.10398403 -0.0009549843
0.12468547 0.044507973 0.019528512 -0.122622795 -0.08423195 -0.015531326 -0.041724958 0.014736356
-0.018614113 -0.014635248 -0.04574445 -0.07492715 -0.021135287 -0.06824822 0.09499894 -0.018110676
-0.016926307 0.055810206 0.029200252 0.13300486 0.04446086 0.08468251 0.08908068 0.14150684
-0.0037019239 0.005195881 -0.02631159 -0.2530032 0.14308633 -0.012324507 -0.12650634 -0.3062158
-0.1932907 -0.38963038 -0.2706214 -0.3083455 -0.14281912 -0.14140944 -0.033030912 0.0047014784
0.0765985 0.026364071 0.16911262 0.10980069 0.12613627 0.19533958 0.2942833 0.23998845
0.13008724 0.08118856 0.11751804 0.13351569 0.056035426 -0.13360281 -0.15690039 -0.19958676
-0.16489947 -0.10085243 -0.18245447 -0.12762097 -0.18784852 0.04642359 0.013690595 0.14365222
0.12767099 0.20274064 0.29475728 0.32205975 0.24868608 0.11788458 0.059115157 0.014293624
-0.23306882 -0.14315142 -0.1743894 -0.25694636 -0.23286952 -0.29119432 -0.020897685 0.052364565
0.11997407 0.1946951 0.19024411 0.19519936 0.19116911 0.11662169 0.14748417 0.10647594
-0.103073 -0.22135504 -0.20213243 -0.2650366 -0.20229347 -0.23855036 -0.15338416 0.005867815
0.1808557 0.08727074 0.26151145 0.19751349 0.29031327 0.09079626 0.030923529 -0.11667959
-0.07769023 -0.12584159 -0.16217239 -0.16995582 -0.1864534 -0.13707022 -0.14197753 -0.042534236
0.097524926 0.03730165 0.13924073 0.12514596 0.21015592 0.18155213 0.14620341 0.061638758
0.14897697 -0.020221775 -0.15682031 -0.17828573 -0.39537096 -0.30873924 -0.20739628 0.14570455
-0.053156376 0.010305898 0.07466986 0.060246065 0.1033381 0.018064875 0.09763685 0.09401969
0.12120172 -0.07942458 0.08667361 -0.041558664 0.012012833 0.06536207 0.012214683 0.06930049
0.0046935724 0.010706364 -0.016162122 0.031579044 -0.09616813 -0.06819265 0.033596378 0.011025515
0.017065277 -0.04912164 0.17841175 0.07398435 0.21081133 0.14538306 0.25117332 0.15300104
0.0917975 0.07988031 -0.09427901 -0.09605008 -0.29693154 -0.243593 -0.3764208 -0.39745137
-0.36385056 -0.26082224 -0.15471569 -0.02736341 0.049490932 0.19102031 0.3631527 0.22625837
0.3202018 0.22722985 0.12967968 0.0323883 -0.09695542 -0.24313344 -0.24577658 -0.32133663

fc1.bias f4 [1024]
00000000: 9ae4 3dbe e814 413e 2efb dfbd 0308 d8bd
00000010: 488a b63d 24fe 943d 01dd 34be a47c f03d
00000020: e47e 3f3d e9ac 683e 2b5f 4f3e f74e 1fbe
00000030: ed3b 4cbd 50f5 463e a3d7 023e b9ee 1abe
00000040: 8857 7bbe 5b39 233e ca9c 69be d5ce 7abe
00000050: 0481 85be dc3f 8a3a e97b bb3d f2d2 473e
00000060: 1ce2 553e f797 b9be a2d8 073e 7c4a 92bc
00000070: 9e40 bb3d b17b 6dbe f45b b0bd 0ba9 923d
00000080: 772f 47be 3322 9ebd 5aab 873e 1d26 383e
00000090: 6881 25be 8b41 323e 9c9a 433e aae9 503e
000000a0: e464 9b3e afd2 1a3e 1971 51bd 5e77 873e
000000b0: 347a 3ebe 9356 31be e782 2bbe 1b0c 283d
000000c0: a22b 28bd b54f 94bd 6456 3c3e f2a4 3a3e
000000d0: a8dd 28be 9b4b dcbd a479 c8b6 a7a1 87be
000000e0: 1f99 12be 80c3 223e 17d5 5e3d 1397 d2bd
000000f0: b38f 80be 3aea 75be 06a7 0e3d 34ab 913e
00000100: 0c73 a0be e7e7 adbd fd49 1ebe 80cd 04bd
00000110: 3e56 173d 3cb3 1fbe 7c3d 7abe d4ef 18be
00000120: 9dc2 1cbd dc76 e33d 30a0 cc3c 5178 09be
00000130: fbde c93c 1863 22be 841f 92bd 1661 43be
00000140: 5bd3 ac3d dfcd e5bd 66ba fabc 85a9 8cbc
00000150: de63 cd3d 7a43 92be 248c 213e 8c6d 05be
00000160: 9a04 77be c1cd 9d3d 1cbd 50be 1aa4 023e
00000170: a61c 033e a6cc 56bb 7213 d93d 4f4c 1dbe
00000180: 21e8 87be efd5 323d 657e 73be fca8 623d
00000190: d975 8e3c 7187 62be 3e62 4a3c e1bc 98be
000001a0: a8ca d53d 617d 80bd 5b92 703e 40df 873e
000001b0: e19d 2cbe a48a 663e 9fd1 9dbd a95b 423b
000001c0: 5f22 f33d 3af5 d1bd 7468 623e a83d d5bd
000001d0: 6e45 bdbd 29e8 293e e1ae 73be 78a8 24bd
000001e0: 17ac 97be 7e47 1cbe e89f ccbe c663 373e
000001f0: 1466 433e 9ca2 983d da7a 433e 6b84 6c3d
00000200: c9b4 bebe 1fea 8ebe 5bb6 9abe 86e6 aabd
00000210: 060b 97bb e0fd 253d d574 03be 20c0 ca3d
00000220: 60b7 493e 3986 39bd 3013 183e f39b a53d
00000230: 0c24 763d df30 0bbe d361 2ebe 685f fb3d
00000240: c77f 483e 5ef0 743e 0bb5 2bbe 6ab4 b73e
00000250: c68b e83d 63ca ec3c 9a93 1dbe 0f44 1bbd
00000260: 3bfb 17be 2f05 ff3d 042e 68bc 3303 64bc
00000270: 5255 833e 131c 223e 9f67 dabc 98e9 333e
00000280: 0880 eebd caa5 773e 4d57 b23d f884 7fbd
00000290: ad6a ce3d e580 303e fbb7 b6bd 2929 f1bd
000002a0: 8c0c 843e 65c8 3abe 9231 f7bd 5fa9 9e3e
000002b0: a40a 523d ff91 e13d 3398 453e 5b66 723c
000002c0: a34b 433d 892c 3b3e bae4 903d 7458 b73d
000002d0: eba6 bfbd a5d1 843d b62c d23d 6caa 203e
000002e0: 44c7 c3bd 1fb9 1e3d fe6c fabd 1b08 1d3e
000002f0: 1111 19be 1cec 223d 8a84 35be 03d5 83be
00000300: 7e9f 47bd 9798 013e 7415 fabd bfa4 35be
00000310: d5d4 39be 89c7 5f3e e76b 483e 6ddf 5f3d
00000320: c53a 01be 7845 07be ae07 563e 9598 1c3e
00000330: d443 18be 33b8 24be d7e1 a0bd 9422 943e
00000340: a1d7 4b3e a5cd 4abe 5971 223e 990a 803e
00000350: 6bdc aebe 085e a33c c3f8 0f3e 870b 803d
00000360: cfd9 bebd f5f2 e6bd e605 503e a9e3 16bd
00000370: 30d5 843e f8e4 aabc a9e1 f5bd a755 ee3d
00000380: 35e4 653e 1417 17be da71 87be b3b5 173e
00000390: dead 643e cc7c 0c3e a34b 1c3e 6a6a 63be
000003a0: 8931 0bbe c75a 38be b82d 383e 94b0 7f3e
000003b0: 7f85 283e d68f 9dbe 3ebd 81be f0bd 5dbe
000003c0: 3a2e 8dbe 5454 22bd ccc3 313e 9093 41be
000003d0: 10a9 4d3e 256b 3d3e 7e8f 95be a056 c3bc
000003e0: 328a 8c3d d9e1 48bc 1035 203e 646d 4fbe
000003f0: 0cda d6bd 662c 9d3e cda0 3f3d 2d6a 2f3e
-0.18544236 0.18855631 -0.109365806 -0.10548403 0.08913094 0.07275036 -0.17662431 0.11742523
0.04675187 0.2272221 0.20251147 -0.15557466 -0.049861837 0.19429517 0.12777571 -0.15130128
-0.2454511 0.15939848 -0.22813717 -0.24492963 -0.26074994 0.0010547596 0.09154493 0.19514063
0.20887035 -0.36248752 0.13266233 -0.017857783 0.09143184 -0.23191716 -0.08611289 0.07161149
-0.194517 -0.07721367 0.26497918 0.17983289 -0.16162646 0.17407815 0.19101948 0.20401636
0.3035041 0.15119432 -0.05113325 0.26458257 -0.18601304 -0.17318182 -0.16749154 0.04102717
-0.041057236 -0.072417654 0.1839233 0.18226984 -0.16490805 -0.10756608 -5.9746253e-06 -0.26490518
-0.14316224 0.1589489 0.054402437 -0.10282721 -0.25109634 -0.24015132 0.034827255 0.2845093
-0.31337774 -0.084914975 -0.15457912 -0.032422543 0.03694748 -0.15595716 -0.24437517 -0.14935237
-0.038271535 0.11106655 0.024978727 -0.13424803 0.024642458 -0.15858114 -0.071349174 -0.19080004
0.0843875 -0.112209074 -0.03060646 -0.017170677 0.10028814 -0.28567106 0.15776116 -0.1303007
-0.24122849 0.0770526 -0.2038464 0.12757912 0.12803897 -0.0032775789 0.10599412 -0.1536114
-0.26544288 0.043661054 -0.23778684 0.055336937 0.017390179 -0.2212198 0.012352524 -0.29831603
0.10439044 -0.06273914 0.2349333 0.26537514 -0.16857101 0.22513825 -0.07705998 0.0029656684
0.1187179 -0.102518514 0.22110158 -0.104121506 -0.09241758 0.16592468 -0.2379718 -0.040199727
-0.29623482 -0.15261647 -0.3996575 0.17909154 0.19081908 0.0745289 0.19089833 0.05774347
-0.37247303 -0.27912995 -0.3021725 -0.0834475 -0.0046094684 0.040525317 -0.12837537 0.09899926
0.19698858 -0.04529402 0.1485107 0.080863856 0.06009297 -0.13592862 -0.17029504 0.12274057
0.19579993 0.23919818 -0.16768281 0.35879833 0.11354785 0.0289051 -0.15388337 -0.037906703
-0.1484193 0.124521606 -0.014171127 -0.013916778 0.25651032 0.15831022 -0.026660739 0.17569578
-0.11645514 0.24184337 0.087080576 -0.06238267 0.100789405 0.1723667 -0.0892181 -0.11775429
0.25790823 -0.18240507 -0.12070002 0.30988595 0.05127968 0.11014175 0.1929634 0.014794911
0.047679555 0.18278708 0.07074876 0.08952418 -0.09358009 0.06485299 0.10262434 0.15690011
-0.09559491 0.038750764 -0.1222782 0.15335123 -0.14947917 0.039775953 -0.17726341 -0.25748453
-0.048736088 0.12655865 -0.12211123 -0.17738627 -0.18147595 0.2185346 0.19572411 0.054656435
-0.12620075 -0.13210094 0.20901367 0.1529258 -0.14869624 -0.16085891 -0.078555755 0.2893263
0.19906475 -0.1980501 0.15863551 0.25008085 -0.3415254 0.019942299 0.14059739 0.06252199
-0.093188874 -0.11276809 0.2031475 -0.036838207 0.259439 -0.020861134 -0.12005932 0.11637431
0.22450335 -0.14754897 -0.2645405 0.14815407 0.2233195 0.13719481 0.15263228 -0.22208562
-0.13593115 -0.18003379 0.1798619 0.24969703 0.16457175 -0.307738 -0.25339693 -0.21654487
-0.2757433 -0.039631203 0.17359847 -0.18903947 0.20084023 0.18497904 -0.29211038 -0.023845017
0.06862296 -0.0122608775 0.15645242 -0.20256573 -0.10490808 0.30697936 0.04678421 0.17130347

fc3.weight f4 [100, 1024]
00000000: 8c2a 553d 9fbf e2bd 9e0c c03d 6be8 99bd
00000010: 4533 babb fafa c63c f519 ae3d 47ba 0cbb
00000020: 6619 723d 9468 2d3e ae2e d2bd 1959 bb3d
00000030: 0202 cebd d713 b5bd 4da7 35bd da78 d5bc
00000040: d5ab 0abd b9c9 2cbd fef2 1c3d fd75 ae3d
00000050: 625e 03bb 4345 303c 86a1 4cbd 6afe 99bc
00000060: 211f ca3d 1bfb 3b3e 6308 c9bd c0a1 c6bc
00000070: 0476 1cbd 1900 6fbd 2328 873d 1a69 cb3d
00000080: 422b 3a3d a51e 79bc 3d59 ecbc 4613 ad3c
00000090: 8f00 203e 144d 89bd 0287 2dbb 826b 793b
000000a0: c0ed 65be e35c a8bb e2c7 193e 8472 e83c
000000b0: ecf6 9abd 24f3 d93c 56ea 823d 879c 0cbd
000000c0: 167a 8bbd 63a9 bf3d 0311 123a fe96 32bd
000000d0: b194 58be 961f 97bd 6695 5d3e e865 1f3e
000000e0: 1d99 993e 4490 433d 4c31 ebbc 8bb6 a63d
000000f0: ee2a b9ba 99e4 533d 4fdb 043e b3c6 bfbc
00000100: 2fa1 9bbc 1d72 aa3c 97aa 273e 6c55 8abc
00000110: 2eaf 1e3d c18c 4d3d 6f8e 223d e8d8 183d
00000120: 4ecf cabc 1cb7 76bd 03b6 30bc 3186 28bc
00000130: 9c71 59bd 86ee 4cbd 586d b33d b1f4 a6bd
00000140: 5a48 12bc b992 3d3d 5baf b63d 6647 a2bd
00000150: dfb9 4ebd 6f73 32be 5d91 863d 63b6 d23d
00000160: a8cc f33d a154 2a3e e0bb 7a3d aebb 23bd
00000170: cdf1 c3bd d819 3b3d 5d73 bbbd a132 003d
00000180: b578 c83c 3739 c5bd 5dfa c53d 1543 3e3d
00000190: 888d 443d 9694 b0bd bd9d 713d f428 f13d
000001a0: 7b6a 90bd 19ce ae3c 5a15 0cbe 9cc0 9dbd
000001b0: db8e 8cbd a4f1 5d3b 31c9 8e3d 2193 87bd
000001c0: b14b 873c 93e4 0cbe 24da c4bd 7ea1 23ba
000001d0: c020 b03b 88c9 b6bd 9420 e93d d27b 60bb
000001e0: 169c e03d 37ef 0dbb 7cd3 f93d c94a fdbd
000001f0: ba88 1bbb c3e7 36bc 0572 c7bd 452d 3f3d
00000200: fdf3 01bd daf9 5f3d 7736 2b3d e83d 4cbd
00000210: 8bb5 233e 9829 f73c 3436 96bb 45de 85bd
00000220: 0e2c 82bd 9511 a73d 79d5 93bd 883c 46bd
00000230: 8c0a 0b3e b66c 2abc 1d46 813d 1581 b9bc
00000240: dc1a 4bbd 37a5 413d dfef 62bc 566f ed3c
00000250: 8640 a8bc 672f 2c3d f441 2b3d 3b62 fd3d
00000260: b7eb 14ba 40fd 95bd 610c bbbc 7657 f53d
00000270: 5633 b6bd d700 2abc 3179 113c ce3b 363d
00000280: 0086 c03d 5c40 41bd 5ac8 8abd e2c9 c3bc
00000290: 2c06 aabd bed3 11bd 7c55 803d af37 5bbd
000002a0: 0793 49bc 8ae0 653e 85ce adbc 1736 d1bd
000002b0: c944 3a3c e644 f4bb a182 06bd f229 03bd
000002c0: 6291 c33d fc2f b5bd bbeb b4bd 1108 ab3b
000002d0: 3e37 b43d a47a 183d 6f17 a73d 0140 9dbd
000002e0: d732 96bd 0342 0abd 70dd 70bd 72ad 9e3b
000002f0: 426c 733d cd4a 093d 65ae 953c 71eb 533d
00000300: b2f5 70bd 1e21 ecbd c7c6 f23c e39e e3bc
00000310: 5887 7a3c c46d 26be 71cd 48be 7b8e 35bd
00000320: 3daf 3f3d 50f2 f13d b934 5ebe ce6c 1fbd
00000330: 4a4a 633d c003 a2bb 4452 85be a4bb a2bd
00000340: bad3 8fbd dc07 623d d9e0 73bd 6f2b efbd
00000350: 2ca2 1f3e 8f43 d3bd 5775 69bd c59c 403d
00000360: 7c1b 5b3d ee2e a53d db7e 36bd 1640 1e3e
00000370: 5998 5bbc a68c 5abd c144 d63d 8152 b8bd
00000380: 89c6 d23d 5cf1 9abc 4ee8 c3bd 6f2e 75bc
00000390: c59c 55bd b64b 2abd 1a4b 06be c1cb 0c3e
000003a0: d181 013e 63bc cfbb 7861 07bd 5ef8 233c
000003b0: 392e b3bc 0c7f 0b3d 3d79 ae3b 94b9 8a3d
000003c0: d718 b03a 4177 31bd d7bc 5cbd 9846 3fbd
000003d0: d999 87bc a9ba ebbd d961 f3ba 5ad5 783d
000003e0: bc23 453e ed38 893d 16e5 e73c 13e1 f5bb
000003f0: 140e 4e3d 42cd b43d 19e0 1cbe fc54 ea3d
0.05204253 -0.11071705 0.093774065 -0.07515033 -0.0056823813 0.024289597 0.08501045 -0.0021473335
0.059106253 0.16934425 -0.1026281 0.091478534 -0.10058977 -0.08841675 -0.044349004 -0.026058603
-0.033855278 -0.042184565 0.038317673 0.08518598 -0.002004527 0.010758701 -0.04995873 -0.018798072
0.098692186 0.18357508 -0.09816053 -0.02424705 -0.038198486 -0.058349703 0.06599452 0.09932156
0.04545141 -0.01520506 -0.028851146 0.021127354 0.15625213 -0.067041546 -0.0026478176 0.0038058464
-0.22453976 -0.005138026 0.15017655 0.028374918 -0.07566628 0.026605196 0.06392352 -0.034328964
-0.068103954 0.0935848 0.0005571993 -0.04360103 -0.21150471 -0.073790714 0.21639022 0.15566218
0.2999963 0.047745004 -0.02871003 0.08140286 -0.0014127174 0.05173168 0.12974285 -0.023410177
-0.018997757 0.020806367 0.16373669 -0.016886435 0.038741283 0.05018306 0.039686617 0.037316233
-0.024757054 -0.06023322 -0.0107855825 -0.0102859 -0.053086862 -0.05003216 0.0876109 -0.0815214
-0.008928383 0.046282504 0.08920165 -0.079237744 -0.05047023 -0.17426847 0.065706946 0.10288694
0.119042695 0.16633846 0.061214328 -0.039973907 -0.09567604 0.045678943 -0.09152863 0.031298283
0.02447162 -0.096300535 0.09666894 0.046450693 0.047986537 -0.086220905 0.05898832 0.11775389
-0.070515595 0.02133851 -0.1368002 -0.07702753 -0.06863185 0.0033865953 0.06971968 -0.066198595
0.016515585 -0.13759069 -0.096119195 -0.0006242021 0.005374998 -0.08925158 0.11383167 -0.003425349
0.10967271 -0.0021657476 0.121985406 -0.1236778 -0.0023732618 -0.011163655 -0.097385444 0.04667403
-0.031726826 0.054681636 0.04179999 -0.049863726 0.15987222 0.0301712 -0.0045840982 -0.06536535
-0.06356059 0.081576504 -0.07218451 -0.04839757 0.13578242 -0.010401895 0.06312201 -0.022644559
-0.049586162 0.0472767 -0.013851135 0.028983753 -0.02053858 0.042037394 0.041810945 0.123722516
-0.0005680876 -0.07323694 -0.022833051 0.119795725 -0.0889651 -0.010376177 0.008878992 0.044490628
0.094005585 -0.04718052 -0.06776495 -0.023899976 -0.083019584 -0.035602324 0.06266305 -0.0535199
-0.01230312 0.22448936 -0.02121664 -0.10215395 0.011368939 -0.0074545024 -0.03283942 -0.032022424
0.09549214 -0.08847043 -0.088340245 0.0052194674 0.08799599 0.037226334 0.081587665 -0.076782234
-0.07333916 -0.03375436 -0.05880493 0.0048424536 0.059429415 0.0335186 0.018271634 0.051738206
-0.058828063 -0.11529754 0.0296358 -0.027785724 0.0152910575 -0.1625281 -0.1960962 -0.044325333
0.04679798 0.118137956 -0.216998 -0.038922124 0.05549077 -0.0049442947 -0.26039326 -0.07945946
-0.070228055 0.055183277 -0.059540603 -0.11678206 0.15589207 -0.1031562 -0.05699667 0.047024507
0.053493008 0.08065592 -0.044554573 0.15454134 -0.013403022 -0.05335679 0.104623325 -0.09000111
0.10291774 -0.018913917 -0.09565793 -0.014964684 -0.05215146 -0.04157611 -0.13114586 0.13749601
0.12647177 -0.006339596 -0.033051938 0.010007946 -0.021872627 0.03405671 0.0053245113 0.067736775
0.0013435137 -0.04332662 -0.05389103 -0.046698183 -0.016552852 -0.11510212 -0.001856859 0.060750343
0.19251913 0.06700311 0.028307479 -0.0075036376 0.050306395 0.08828212 -0.15319861 0.11441991

fc3.bias f4 [100]
00000000: e6c0 313f 80e3 373f 9645 443f 935e 3c3f
00000010: ecaf 453f 23a6 4c3f a2ef 4c3f 9bee 493f
00000020: 2061 5b3f e79e 5c3f e8aa 593f e2d6 5b3f
00000030: 8c9e 5f3f 6c91 663f 158e 683f bdf7 673f
00000040: cb79 723f 126a 723f e6ef 7d3f 0b75 7b3f
00000050: a15d 7d3f 7b71 7f3f cc57 843f b7e2 853f
00000060: c5bd 863f f684 873f 7cd1 893f b98b 8c3f
00000070: da53 8c3f 1e7c 903f da3d 923f b29c 933f
00000080: 100a 993f 6b6e 993f 2fea 983f 5976 9e3f
00000090: 9fc8 a03f 991e a23f 544e a23f 8037 a63f
000000a0: be61 a53f 4974 a43f 3287 a93f 68eb ab3f
000000b0: 91af b03f 77a2 a93f 0fe6 ae3f c0a8 b23f
000000c0: 73c8 b33f 8af7 b73f 6c69 b53f 4930 b83f
000000d0: 493b bc3f 90ed bf3f d3c6 bd3f f6b1 c03f
000000e0: 1759 c13f ee35 c33f a839 c53f 54e3 ca3f
000000f0: caa1 cb3f c912 cc3f 9229 cb3f 2cd9 d03f
00000100: 4c05 cf3f a132 d43f 8bf4 d23f 6a62 d33f
00000110: fd54 d93f 61d6 d73f f9c9 dd3f 569d da3f
00000120: 087a e33f 4721 e03f 7203 e63f c9b2 e33f
00000130: 0e01 e83f 69f8 e43f 539c e83f 757c eb3f
00000140: 0b71 ef3f 8ba0 f13f c4d5 ef3f 1ea5 f43f
00000150: cc97 f73f 5ffc f93f 3f62 fa3f 771f fd3f
00000160: d335 fb3f 489e ff3f d6e0 0040 eddf 0140
00000170: 4db4 0440 1d3d 0340 0520 0340 6de5 0540
00000180: a7b9 0540 6106 0740 c167 0840 b0e7 0740
0.69434965 0.7183151 0.7666868 0.7358181 0.7722156 0.79941005 0.8005315 0.7887971
0.85695076 0.86179966 0.8502641 0.8587476 0.873513 0.90065646 0.908418 0.90612394
0.9471709 0.946931 0.9919418 0.9822547 0.9897099 0.9978253 1.0339293 1.0459813
1.0526663 1.0587451 1.0767055 1.098014 1.096309 1.1287878 1.1425126 1.1532195
1.1956196 1.1986822 1.1946467 1.2379867 1.2561225 1.2665588 1.2680154 1.2985687
1.2920454 1.2847987 1.3244383 1.3431215 1.3803579 1.3252705 1.3663958 1.3957748
1.4045547 1.4372418 1.4172797 1.4389735 1.4705592 1.4994373 1.4826301 1.5054309
1.5105313 1.5250833 1.540822 1.5850625 1.5908749 1.5943233 1.5872061 1.6316276
1.6173491 1.6577951 1.6480879 1.6514409 1.6979061 1.6862298 1.7327262 1.7079265
1.7771616 1.7510155 1.7969801 1.7788936 1.8125322 1.7888309 1.8172706 1.8397356
1.8706373 1.8877119 1.8737111 1.911289 1.93432 1.9530143 1.9561232 1.9775227
1.9625801 1.9970179 2.013723 2.0292923 2.0735047 2.050605 2.0488293 2.092128
2.0894563 2.1097643 2.1313326 2.123516
