top_model.pth (torch_old, 824521 bytes, 4 tensors)

fc1.weight f4 [1024, 100]
0.075441636 0.09052541 -0.061606713 -0.055941712 -0.025335036 0.014616218 -0.0153299235 0.067079104
-0.018283691 0.021485394 -0.02880115 -0.009322896 -0.07339666 -0.030173449 0.0065468503 0.053436678
0.08000266 0.08743055 -0.045637924 -0.023877807 0.07487651 0.12227944 0.0017398646 0.102798365
0.01803098 0.04703967 0.120481364 -0.07071056 -0.041225135 -0.006437609 -0.023317344 0.100257665
-0.05103201 -0.030433787 -0.0502318 -0.06775624 -0.006538619 0.1362293 0.08634526 0.08762656
0.03107904 -0.03514259 0.025976365 -0.09092283 -0.07719136 -0.0657696 0.036093194 0.012438833
-0.15220326 -0.14721276 -0.12374569 -0.09897632 -0.14027008 -0.1479435 -0.08198691 -0.20096856
-0.1209846 -0.21877077 -0.21651748 -0.20904249 -0.10423273 -0.0059742727 -0.041750323 0.08079836
0.1259407 0.07410144 0.10508574 0.1402137 0.1985908 0.25968787 0.12477062 0.15274581
0.1281551 0.11659534 0.08749131 0.035998624 -0.06868751 -0.20577505 -0.14094491 -0.24932034
-0.32014987 -0.13959639 -0.085376054 -0.19905035 -0.03713045 -0.038851894 -0.0073795863 -0.003084302
0.12363796 0.08434823 0.22786333 0.1968383 0.17458916 0.13643405 -0.02513117 -0.007928323
0.097166255 0.06596313 -0.024355987 0.018608391 0.20559657 0.17341632 0.05299926 0.06648465
-0.0053061917 0.08853599 0.016675683 0.01674796 0.081341065 0.10220479 0.044319607 0.14076123
0.012910893 0.146359 0.07537041 -0.14834228 -0.12429269 -0.11496915 -0.12501459 -0.12526774
-0.11456244 -0.15344618 -0.21598744 -0.110967405 -0.26772815 -0.24347569 -0.20968974 -0.17420541
-0.09323227 -0.097948186 -0.012197329 0.04599376 -0.030474262 0.036033068 0.11654781 0.035953656
0.046981793 0.026810199 0.028939215 0.04237763 0.065974884 0.030381396 0.06080969 -0.038340997
-0.13721268 -0.090049066 0.032140866 -0.026454292 -0.058974735 -0.05864524 -0.042316608 -0.014484569
0.055255625 0.13805339 0.13888396 -0.018425327 0.13112158 -0.025847247 -0.008330565 -0.045463618
-0.046494775 -0.06633095 -0.123031706 -0.10646727 -0.010055292 0.017518986 -0.020664494 0.061279353
-0.07032844 0.018645808 0.13501674 0.026049692 0.16211967 0.09531943 -0.057119448 0.06828979
-0.033131897 -0.10376078 0.007728994 -0.17220329 -0.09810498 -0.12951562 -0.023553316 -0.031186106
0.017533619 0.037090227 0.01137358 0.045346435 0.018627657 0.188093 0.21304165 0.18762992
0.053983178 0.1157535 0.024227895 0.00971313 -0.0028109148 0.09768802 0.026081026 0.10933944
-0.23641248 -0.14123277 -0.22890669 -0.18172294 -0.14073752 0.012049691 -0.07233372 0.0677923
0.038613264 0.03389598 0.039425768 0.03972844 0.091884926 0.07691631 0.12006005 0.1551895
0.10667402 0.15602897 0.3142147 0.17538111 0.2547569 0.36077267 0.27886418 0.21134487
0.079845294 0.17296946 0.012722412 0.021981506 -0.010293557 -0.032445107 -0.031663004 0.040082265
-0.03414709 0.044122532 0.021836748 -0.09356819 0.029323384 -0.09132347 -0.071275085 -0.0011262768
0.005712143 0.057893414 -0.040739518 -0.0070904917 0.0606678 -0.09600555 0.059755843 -0.110970624
-0.03949048 -0.058736462 -0.08264411 -0.008269493 0.06801785 -0.034207035 -0.051910456 -0.015179454
00000000: 2581 9a3d 6365 b93d 5257 7cbd 2323 65bd
00000010: 6c8b cfbc dd78 6f3c 5c2a 7bbc c560 893d
00000020: aec7 95bc 2302 b03c 64f0 ebbc 0fbf 18bc
00000030: fd50 96bd 4f2e f7bc f686 d63b 6be0 5a3d
00000040: 6fd8 a33d ca0e b33d d5ee 3abd 649b c3bc
00000050: db58 993d a56d fa3d 2b0c e43a f387 d23d
00000060: b5b5 933c abac 403d efbe f63d b3d0 90bd
00000070: b0db 28bd 94f2 d2bb 0404 bfbc e453 cd3d
00000080: f106 51bd 4750 f9bc dcbf 4dbd c9c3 8abd
00000090: e941 d6bb b27f 0b3e c9d5 b03d 8e75 b33d
000000a0: 7999 fe3c adf1 0fbd 63cc d43c c035 babd
000000b0: 8116 9ebd 36b2 86bd 75d6 133d 3fcc 4b3c
000000c0: 2cdb 1bbe f1be 16be 616e fdbd 19b4 cabd
000000d0: f6a2 0fbe 807e 17be c1e8 a7bd b4ca 4dbe
000000e0: c6c6 f7bd 7205 60be c2b6 5dbe 3c0f 56be
000000f0: f877 d5bd d5c3 c3bb 6302 2bbd 9c79 a53d
00000100: 99f6 003e 7fc2 973d 3137 d73d 2e94 0f3e
00000110: 635b 4b3e cff5 843e bd87 ff3d 6669 1c3e
00000120: 173b 033e 8ac9 ee3d a52e b33d 4b73 133d
00000130: 0aac 8cbd b2b6 52be dd53 10be d54d 7fbe
00000140: afea a3be 5bf2 0ebe a4d9 aebd dbd3 4bbe
00000150: 1916 18bd 2a23 1fbd 75d0 f1bb 0022 4abb
00000160: e635 fd3d c4be ac3d 0155 693e fb8f 493e
00000170: 80c7 323e 5eb5 0b3e e2df cdbc cce5 01bc
00000180: 1aff c63d ad17 873d 3586 c7bc a070 983c
00000190: e887 523e 0c94 313e c115 593d 1b29 883d
000001a0: 90df adbb 5b52 b53d 719b 883c 0533 893c
000001b0: 2596 a63d bf50 d13d 7a88 353d b623 103e
000001c0: 3688 533c 22df 153e cd5b 9a3d 0ae7 17be
000001d0: 2a8d febd f274 ebbd d303 00be 3046 00be
000001e0: b69f eabd ff20 1dbe d02b 5dbe e142 e3bd
000001f0: aa13 89be b151 79be e8b8 56be e762 32be
00000200: 8ff0 bebd 0f99 c8bd 4ed7 47bc f463 3c3d
00000210: 29a5 f9bc 6997 133d 9eb0 ee3d 2444 133d
00000220: fb6f 403d 10a1 db3c ef11 ed3c 2a94 2d3d
00000230: d71d 873d 68e2 f83c 9513 793d 730b 1dbd
00000240: 7b81 0cbe a56b b8bd 24a6 033d acb6 d8bc
00000250: 7e8f 71bd fe35 70bd 2e54 2dbd b050 6dbc
00000260: b953 623d de5d 0d3e 9937 0e3e b6f0 96bc
00000270: bc44 063e 9bbd d3bc ec7c 08bc 0f38 3abd
00000280: 4e71 3ebd 85d8 87bd 0cf8 fbbd 830b dabd
00000290: f4be 24bc fa83 8f3c 9648 a9bc 0f00 7b3d
000002a0: 5b08 90bd 18bf 983c d441 0a3e 2a66 d53c
000002b0: b302 263e d536 c33d 15f6 69bd 84db 8b3d
000002c0: 50b5 07bd 8880 d4bd 8043 fd3b 0f56 30be
000002d0: 44eb c8bd be9f 04be e2f2 c0bc 017a ffbc
000002e0: aaa2 8f3c eceb 173d 4158 3a3c 2fbd 393d
000002f0: 0799 983c 749b 403e 9727 5a3e 0f22 403e
00000300: 771d 5d3d 2c10 ed3d 9479 c63c d223 1f3c
00000310: 5337 38bb a810 c83d e0a7 d53c 5bed df3d
00000320: 1d16 72be 539f 10be 8466 6abe 9415 3abe
00000330: 7f1d 10be 116c 453c b423 94bd b0d6 8a3d
00000340: f128 1e3d 83d6 0a3d ea7c 213d 4aba 223d
00000350: 2a2e bc3d 4c86 9d3d 0be2 f53d ffe9 1e3e
00000360: e977 da3d 0fc6 1f3e c0e0 a03e 1b97 333e
00000370: 7f6f 823e 32b7 b83e 49c7 8e3e ca6a 583e
00000380: ee85 a33d e81e 313e aa71 503c 8f12 b43c
00000390: 4fa6 28bc 29e5 04bd 11b1 01bd 4d2d 243d
000003a0: d2dd 0bbd d4b9 343d fbe2 b23c aea0 bfbd
000003b0: 9837 f03c cd07 bbbd acf8 91bd 949f 93ba
000003c0: ee2c bb3b a521 6d3d 7bde 26bd 5b57 e8bb
000003d0: cd7e 783d 8f9e c4bd 8bc2 743d 9144 e3bd
000003e0: c5c0 21bd a595 70bd 5141 a9bd c47c 07bc
000003f0: f14c 8b3d ad1c 0cbd 0fa0 54bd 3fb3 78bc

fc1.bias f4 [1024]
0.047951017 0.18822694 -0.31226465 0.020380506 -0.17851958 0.15783034 -0.35351172 0.013148214
-0.1761473 0.007654444 0.1382637 -0.07251612 0.38113144 0.08106631 -0.10118863 -0.19998676
0.06608323 0.09637682 0.023004254 -0.3572612 -0.38377818 -0.40898806 0.18100324 -0.26889676
0.08928645 -0.0072785383 -0.31275216 -0.09196448 -0.24956413 -0.068308525 -0.07774077 -0.057487544
0.02545683 0.08803347 0.07930482 -0.12433409 -0.54673743 0.09268806 -0.014116855 -0.1516263
0.1897778 -0.2567332 -0.3753551 0.06140631 -0.0033569143 0.08989841 0.008002227 0.117066085
-0.193889 -0.065343454 0.5828705 -0.18222867 -0.0007842748 -0.062253177 0.123861164 0.09740589
0.06444371 -0.0917709 -0.07619978 0.3425366 -0.18243131 -0.12758018 0.3671368 0.058415797
-0.2204738 -0.15111889 -0.10687103 -0.19965255 -0.20332497 0.22091271 0.18749794 -0.09119592
0.26259017 0.08915086 0.29372802 0.1834802 0.30898014 -0.18936372 0.23754628 -0.22793208
-0.123760246 -0.1563157 0.2025428 -0.0082260305 -0.044533838 -0.115454435 0.20009284 0.35535264
-0.07969478 0.0993965 0.17227925 0.00045948895 0.07906935 0.24906678 0.15896253 -0.2336839
0.036266744 0.10768266 0.23671173 0.051094763 0.20567986 -0.097304 -0.05135312 -0.24580847
-0.11929568 -0.15994506 0.06761549 -0.15824087 0.20021406 0.112524144 0.3528723 0.07984058
-0.19014587 -0.07280725 -0.28837177 -0.07672773 0.20122772 0.022678673 0.015832953 0.08316624
-0.36448687 0.108597234 0.08035019 -0.04835658 0.20520888 -0.2322936 0.020287283 0.09836235
0.11020436 -0.102599606 0.020813692 -0.17828977 0.118376575 -0.0751464 -0.15098925 0.4130709
-0.059028484 -0.11303066 0.16369951 0.51630956 0.12574972 -0.25918168 -0.27491271 0.28324172
0.16418435 -0.16600522 0.18625814 0.11885707 0.026794959 0.09015408 -0.04712708 -0.114395924
-0.2360343 0.1655667 0.04655207 0.26540464 -0.18022628 -0.09715738 -0.01504003 -0.21892308
-0.07851788 -0.31686243 -0.173006 -0.07227307 0.053646512 1.0229177 0.064897 0.13542412
-0.6659089 -0.31675982 -0.2207927 0.8132707 -0.35111892 -0.441316 0.034983907 -0.15299404
0.4853485 0.48923454 0.40475044 0.014471865 0.06533074 0.113410965 0.06454767 -0.043457903
0.06330036 -0.11887903 -0.2284644 -0.043228295 0.31309798 -0.7048407 0.075329065 -0.04798071
-0.22272578 -0.12195248 0.103951044 -0.10206386 -0.61581945 0.25397193 0.20114326 -0.22075239
-0.5409046 -0.039774626 0.13689604 0.22204685 -0.08581812 0.11698441 -0.13208936 0.18775846
-0.22878794 0.049098518 0.028819868 -0.42956686 -0.20599288 0.12048213 0.23731941 0.075291194
-0.18926595 -0.2804248 0.24960336 -0.3103688 -0.21771927 -0.20870212 -0.033600684 -0.24812783
-0.30262294 -0.19168511 -0.15134583 -0.21172869 -0.019808695 0.004564849 0.23578405 0.28048062
-0.17634821 -0.21242976 -0.11704866 -0.30256402 -0.032586355 0.3530987 0.05424733 0.41646975
0.0800126 -0.08425621 -0.19681688 0.27182716 0.3206163 0.7218393 0.12369879 0.12897004
0.19610226 0.2332638 -0.28436658 -0.24595504 0.122581124 -0.04453651 -0.43996397 0.00690934
00000000: 4968 443d 90be 403e 27e1 9fbe 05f5 a63c
00000010: d6cd 36be 479e 213e 7dff b4be 9b6b 573c
00000020: f55f 34be 21d2 fa3b 0095 0d3e 5583 94bd
00000030: a923 c33e 1806 a63d fc3b cfbd 54c9 4cbe
00000040: a556 873d 3661 c53d 6b73 bc3c f1ea b6be
00000050: 937e c4be e266 d1be ea58 393e d6ac 89be
00000060: d0db b63d ce80 eebb 0d21 a0be e057 bcbd
00000070: bd8d 7fbe 57e5 8bbd 8e36 9fbd 0f78 6bbd
00000080: d88a d03c e44a b43d 916a a23d dfa2 febd
00000090: fcf6 0bbf 3dd3 bd3d 624a 67bc ed43 1bbe
000000a0: 1d55 423e 8972 83be 8b2e c0be 2f85 7b3d
000000b0: adff 5bbb a81c b83d c61b 033c 58c0 ef3d
000000c0: d78a 46be cad2 85bd 0037 153f 279a 3abe
000000d0: ca97 4dba 30fd 7ebd ecaa fd3d bd7c c73d
000000e0: 10fb 833d 62f2 bbbd a10e 9cbd f560 af3e
000000f0: 46cf 3abe 61a4 02be 5bf9 bb3e 6745 6f3d
00000100: e2c3 61be e9be 1abe 33df dabd b871 4cbe
00000110: 6c34 50be f136 623e 76ff 3f3e edc4 babd
00000120: 3872 863e ba94 b63d 8563 963e 3ce2 3b3e
00000130: a532 9e3e 90e8 41be 553f 733e 0767 69be
00000140: 0376 fdbd 3911 20be 6167 4f3e 79c6 06bc
00000150: 1d69 36bd 6073 ecbd 23e5 4c3e c8f0 b53e
00000160: 0437 a3bd 6490 cb3d f969 303e 90e7 f039
00000170: 1def a13d 5d0b 7f3e 13c7 223e d54a 6fbe
00000180: 708c 143d ba88 dc3d 8f64 723e be48 513d
00000190: be9d 523e 5247 c7bd a657 52bd 37b5 7bbe
000001a0: 4b51 f4bd a3c8 23be fd79 8a3d e509 22be
000001b0: ea04 4d3e 0f73 e63d aeab b43e 7583 a33d
000001c0: 99b5 42be f81b 95bd 77a5 93be 6e23 9dbd
000001d0: a40e 4e3e a0c8 b93c 1cb4 813c 1053 aa3d
000001e0: 069e babe 3a68 de3d a48e a43d 8d11 46bd
000001f0: 4722 523e 60de 6dbe 8431 a63c 3372 c93d
00000200: d3b2 e13d be1f d2bd 7a81 aa3c 9891 36be
00000210: 6b6f f23d 5be6 99bd ed9c 1abe 077e d33e
00000220: dac7 71bd 9e7c e7bd d8a0 273e dd2c 043f
00000230: 89c4 003e 76b3 84be 5cc1 8cbe 0f05 913e
00000240: f11f 283e 46fd 29be 74ba 3e3e 566b f33d
00000250: 1a81 db3c b4a2 b83d 5308 41bd 6948 eabd
00000260: fab2 71be 518a 293e 62ad 3e3d 1ee3 873e
00000270: 3d8d 38be 73fa c6bd 756a 76bc 5f2d 60be
00000280: fbcd a0bd cb3b a2be 7c28 31be e703 94bd
00000290: 72bc 5b3d f8ee 823f b8e8 843d 9fac 0a3e
000002a0: 0179 2abf 582e a2be 7b17 62be 8232 503f
000002b0: dcc5 b3be 2cf4 e1be 494b 0f3d 78aa 1cbe
000002c0: 997f f83e f37c fa3e 733b cf3e 671b 6d3c
000002d0: 1fcc 853d 0244 e83d 9231 843d ea00 32bd
000002e0: 9fa3 813d d976 f3bd 92f2 69be 2710 31bd
000002f0: 614e a03e 7170 34bf 2046 9a3d 6c87 44bd
00000300: 3a12 64be 39c2 f9bd 49e4 d43d db06 d1bd
00000310: 58a6 1dbf 9c08 823e 80f8 4d3e ea0c 62be
00000320: b978 0abf b8ea 22bd 7a2e 0c3e 4060 633e
00000330: 69c1 afbd 8695 ef3d 6f42 07be c143 403e
00000340: 6347 6abe 871b 493d a517 ec3c 30f0 dbbe
00000350: ccef 52be 56bf f63d dc03 733e 4532 9a3d
00000360: efce 41be d793 8fbe 0698 7f3e a9e8 9ebe
00000370: cdf1 5ebe 02b6 55be dfa0 09bd 3915 7ebe
00000380: 65f1 9abe 1a49 44be 67fa 1abe 68cf 58be
00000390: d845 a2bc bb94 953b 6071 713e 289b 8f3e
000003a0: a094 34be 3087 59be 35b7 efbd ace9 9abe
000003b0: 4579 05bd 5ac9 b43e 7332 5e3d 863b d53e
000003c0: a5dd a33d 858e acbd 5d8a 49be ee2c 8b3e
000003d0: d227 a43e 76ca 383f cb55 fd3d b910 043e
000003e0: 08cf 483e b5dc 6e3e 7f98 91be a3db 7bbe
000003f0: d00b fb3d ea6b 36bd f542 e1be bf67 e23b

fc2.weight f4 [100, 1024]
-0.051960498 0.03289219 -0.027091766 -0.014603911 0.064428486 -0.021636793 -0.095647015 0.026552934
-0.021561315 -0.07561797 0.009793281 0.008380113 -0.019405834 0.069393076 0.034060016 0.09959908
-0.048871543 -0.0022984126 -0.048946194 -0.058286425 -0.0045205136 0.027097339 -0.009724063 0.08990888
-0.023973832 -0.014188717 0.013047835 0.005192134 0.009336468 -0.005465777 0.011419543 -0.02547259
-0.091087125 -0.0017749923 0.017790267 0.04159372 0.03368087 -0.012084991 0.012883471 0.023305437
-0.020251952 0.017148701 0.018354272 -0.03236829 -0.044910263 0.0004810367 -0.047681272 0.000763881
0.03921246 0.036077075 -0.06123294 -0.033680573 0.016544139 -0.05331285 0.045470893 0.012324417
-0.011946442 0.029470114 -0.020500273 0.015517168 -0.050555997 0.019216511 0.08655137 0.16997038
0.051186644 0.07266156 -0.01848013 0.03199559 0.048593808 0.00046033508 0.0059401174 -0.042878017
-0.0902185 -0.11025867 0.028786616 -0.032129377 -0.037271988 0.059312638 0.046651706 0.021661097
-0.053493693 0.09657221 -0.039870143 0.049976975 -0.042219564 -0.051314153 -0.05122523 0.0025878288
0.016573152 0.013952823 0.012892326 0.01440312 -0.07130351 -0.011902972 -0.011422247 0.05961744
0.026618024 -0.032693315 -0.04100036 -0.020916745 -0.009936583 0.00478829 0.08847551 0.07531174
-0.020060433 0.0036834183 0.014394429 -0.056261502 -0.029950907 0.025310032 -0.019962518 0.027442008
-0.02899865 0.006457089 -0.006741071 0.059192274 -0.020332316 0.043896683 -0.037467994 0.027497558
0.09101912 0.009106377 0.029863171 0.0044326712 0.028691174 0.03075623 0.046315514 0.06428222
-0.016271178 -0.038610525 0.03986761 0.042223502 0.10567564 -0.014568759 0.011360063 -0.050746776
-0.021517152 -0.015074144 -0.028380513 0.057621885 -0.0505253 0.07260003 -0.06270457 -0.038869627
0.023593111 0.06765904 0.051452328 -0.056235623 -0.013349697 -0.16089271 -0.05642596 -0.027417762
0.062067825 0.0009546277 0.031793922 -0.028601592 0.05836619 0.0021586544 -0.008247244 0.009457864
0.054711517 0.10633855 0.049444225 0.02290668 -0.0011914541 0.11746312 -0.004952937 0.00996872
-0.13640742 0.03987978 0.08209352 0.20253748 -0.016434755 0.002143429 0.059372906 0.084740005
-0.06827382 0.09410976 -0.081954874 0.009615516 0.072293796 0.01893194 0.032638106 -0.05308224
-0.04028264 0.032005925 -0.06192976 -0.040855512 0.021000493 -0.06745543 0.0086379675 -0.005565244
0.00025638868 0.027190262 -0.007184698 -0.0050498643 -0.019859882 0.036746867 0.051495615 0.041996725
-0.093892686 0.013470236 -0.017277975 -0.0026659782 0.0192092 0.019348856 -0.021835718 -0.023701074
-0.038414538 0.0012426921 -0.036102597 0.10161055 -0.042155847 -0.10502986 -0.07863867 -0.042477746
0.0741259 0.042089123 0.00056935736 0.13446891 -0.020862196 0.0005477582 -0.024762008 0.04098153
-0.13412184 0.036179163 0.023025813 0.016801538 -0.00930576 -0.014970088 -0.014290702 0.025493158
-0.029575882 0.020481488 0.008848118 0.018140147 -0.0670749 0.0874987 -0.014529976 -0.023177411
-0.034453806 0.1114017 -0.0008674365 -0.03791422 0.045926295 -0.07895642 0.0036026177 -0.017971981
0.014542551 -0.00016164477 -0.24227323 -0.017455002 -0.07609143 0.0023979144 -0.05428037 -0.06988725
00000000: 88d4 54bd f6b9 063d 8def ddbc 3e45 6fbc
00000010: 15f3 833d a53f b1bc 95e2 c3bd 8a85 d93c
00000020: 5ba1 b0bc 98dd 9abd ff73 203c be4c 093c
00000030: fcf8 9ebc f51d 8e3d 8482 0b3d 9afa cb3d
00000040: 872d 48bd f7a0 16bb ce7b 48bd bfbd 6ebd
00000050: d120 94bb 3dfb dd3c ad51 1fbc 2622 b83d
00000060: c564 c4bc cb77 68bc 96c6 553c c722 aa3b
00000070: fcf7 183c 431a b3bb 0919 3b3c e5ab d0bc
00000080: e38b babd dca6 e8ba e5bc 913c 2d5e 2a3d
00000090: f4f4 093d 2000 46bc 3215 533c 0beb be3c
000000a0: 6ce7 a5bc 6f7b 8c3c b35b 963c 9d94 04bd
000000b0: d3f3 37bd a733 fc39 704d 43bd 303f 483a
000000c0: 3f9d 203d 8ec5 133d 64cf 7abd a4f4 09bd
000000d0: 9387 873c 935e 5abd b03f 3a3d 5aec 493c
000000e0: 02bb 43bc 4f6b f13c 30f0 a7bc b83b 7e3c
000000f0: ce13 4fbd f26b 9d3c d841 b13d b70c 2e3e
00000100: 16a9 513d 95cf 943d a463 97bc cf0d 033d
00000110: 4d0a 473d 2159 f139 51a5 c23b dca0 2fbd
00000120: 7ac4 b8bd 4ccf e1bd e9d1 eb3c 189a 03bd
00000130: 83aa 18bd cff1 723d dc15 3f3d 9d72 b13c
00000140: 341c 5bbd a7c7 c53d e04e 23bd a8b4 4c3d
00000150: 6cee 2cbd ca2e 52bd 8cd1 51bd 9098 293b
00000160: 6bc4 873c 629a 643c 563a 533c 10fb 6b3c
00000170: 9307 92bd af04 43bc 6024 3bbc 6b31 743d
00000180: 0b0e da3c 6de9 05bd feef 27bd 9859 abbc
00000190: 0dcd 22bc 16e7 9c3b a632 b53d 0b3d 9a3d
000001a0: c755 a4bc 8165 713b 9cd6 6b3c 7672 66bd
000001b0: 9b5b f5bc fc56 cf3c 6f88 a3bc 10ce e03c
000001c0: 948e edbc fd95 d33b 34e4 dcbb 9973 723d
000001d0: f58f a6bc 02cd 333d 0a78 19bd 8f42 e13c
000001e0: 3b68 ba3d ea32 153c 9ca3 f43c f13f 913b
000001f0: c109 eb3c 7df4 fb3c 56b5 3d3d 66a6 833d
00000200: 224b 85bc 1226 1ebd 384c 233d 8df2 2c3d
00000210: 786c d83d ceb1 6ebc 8f1f 3a3c dadb 4fbd
00000220: bd44 b0bc 8bf9 76bc 407e e8bc ed04 6c3d
00000230: 9ef3 4ebd 53af 943d 416b 80bd c235 1fbd
00000240: 5746 c13c d390 8a3d adbf 523d 5357 66bd
00000250: b0b8 5abc 0fc1 24be e81e 67bd 379b e0bc
00000260: d53a 7e3d fb3f 7a3a 583a 023d e34d eabc
00000270: 6311 6f3d 3678 0d3b 731f 07bc 28f5 1a3c
00000280: 2f19 603d 07c8 d93d 0786 4a3d caa6 bb3c
00000290: 912a 9cba 8190 f03d 3f4c a2bb d853 233c
000002a0: 63ae 0bbe fb58 233d a620 a83d fc65 4f3e
000002b0: 2ea2 86bc c578 0c3b 0131 733d 2b8c ad3d
000002c0: 25d3 8bbd 9ebc c03d f5d7 a7bd 668a 1d3c
000002d0: c50e 943d 2817 9b3c 89af 053d c36c 59bd
000002e0: 69ff 24bd a518 033d 0faa 7dbd 1c58 27bd
000002f0: 3a09 ac3c 1326 8abd 4386 0d3c a65c b6bb
00000300: e86b 8639 1dbe de3c 9d6d ebbb 5579 a5bb
00000310: 31b1 a2bc e283 163d 11ed 523d c204 2c3d
00000320: cf4a c0bd 44b2 5c3c 8a8a 8dbc b1b7 2ebb
00000330: 9d5c 9d3c 7e81 9e3c d2e0 b2bc c128 c2bc
00000340: 9058 1dbd d4e1 a23a 51e0 13bd 3119 d03d
00000350: 9cab 2cbd e519 d7bd 500d a1bd 25fd 2dbd
00000360: 52cf 973d a565 2c3d ed40 153a 38b2 093e
00000370: 32e7 aabc 6e97 0f3a b2d9 cabc 40dc 273d
00000380: 3c57 09be 9a30 143d a1a0 bc3c 61a3 893c
00000390: 3077 18bc 1a45 75bc 8c23 6abc 07d7 d03c
000003a0: 1f49 f2bc cbc8 a73c b2f7 103c a59a 943c
000003b0: 915e 89bd 8532 b33d 230f 6ebc 8ede bdbc
000003c0: 6f1f 0dbd 9326 e43d ae64 63ba f14b 1bbd
000003d0: 361d 3c3d e7b3 a1bd e519 6c3b fa39 93bc
000003e0: e143 6e3c 307f 29b9 7916 78be cbfd 8ebc
000003f0: d3d5 9bbd 5426 1d3b 1855 5ebd 0c21 8fbd

fc2.bias f4 [100]
1.0866432 1.107412 1.1466533 1.1220844 1.171175 1.193662 1.2109238 1.2417803
1.2500985 1.2901847 1.3111018 1.3359389 1.351552 1.3919649 1.3935136 1.4337682
1.4321436 1.459587 1.4829174 1.5090157 1.5494605 1.5682281 1.5747653 1.5890577
1.6061059 1.6407089 1.6501602 1.6629009 1.6718469 1.720687 1.7462195 1.7405902
1.7743648 1.7752868 1.7890519 1.8121768 1.8330241 1.8571414 1.8681668 1.883348
1.9213022 1.9321864 1.9232881 1.928165 1.970205 1.9775722 1.9796909 2.0184891
2.0180044 2.0346165 2.0459304 2.0786035 2.0747595 2.0998867 2.1088736 2.129211
2.1615179 2.1632454 2.1650176 2.1731915 2.1843598 2.1957722 2.2207913 2.2396176
2.2497497 2.2642167 2.242044 2.283199 2.2966726 2.3033135 2.3174436 2.3097239
2.2827017 2.3533847 2.3796601 2.356064 2.3941946 2.3969731 2.3857129 2.4017174
2.4330773 2.4452035 2.4271433 2.4313078 2.4584372 2.474697 2.4733925 2.4992862
2.49933 2.481392 2.534432 2.5098708 2.5254874 2.558752 2.5200238 2.5953298
2.541039 2.6134045 2.5565567 2.558287
00000000: 2017 8b3f adbf 8d3f 89c5 923f 76a0 8f3f
00000010: 10e9 953f ebc9 983f 8dff 9a3f a8f2 9e3f
00000020: 3a03 a03f c624 a53f 2fd2 a73f 0c00 ab3f
00000030: a8ff ac3f e82b b23f a75e b23f b785 b73f
00000040: 7b50 b73f bfd3 ba3f 3dd0 bd3f 6d27 c13f
00000050: b954 c63f b3bb c83f e991 c93f 3e66 cb3f
00000060: e194 cd3f c002 d23f 7338 d33f f0d9 d43f
00000070: 14ff d53f 793f dc3f 1f84 df3f a9cb de3f
00000080: 631e e33f 993c e33f a7ff e43f 69f5 e73f
00000090: 89a0 ea3f cfb6 ed3f 1720 ef3f 8c11 f13f
000000a0: 3bed f53f e251 f73f 4e2e f63f 1cce f63f
000000b0: ad2f fc3f 1621 fd3f 8366 fd3f ed2e 0140
000000c0: fc26 0140 2837 0240 86f0 0240 d707 0540
000000d0: dcc8 0440 8b64 0640 c9f7 0640 fe44 0840
000000e0: 4f56 0a40 9d72 0a40 a68f 0a40 9215 0b40
000000f0: 8dcc 0b40 8887 0c40 7221 0e40 e555 0f40
00000100: e6fb 0f40 ede8 1040 a67d 0f40 ef1f 1240
00000110: affc 1240 7d69 1340 ff50 1440 84d2 1340
00000120: c917 1240 db9d 1640 5a4c 1840 c1c9 1640
00000130: 7c3a 1940 0268 1940 85af 1840 bdb5 1940
00000140: 8ab7 1b40 377e 1c40 5156 1b40 8c9a 1b40
00000150: 0957 1d40 7061 1e40 104c 1e40 4ef4 1f40
00000160: 06f5 1f40 20cf 1e40 2234 2240 b9a1 2040
00000170: 96a1 2140 98c2 2340 1248 2140 e219 2640
00000180: 62a0 2240 0542 2740 a09e 2340 f9ba 2340
